dqn/solution/checkpoint.pth (torch, 22969 bytes, 6 tensors)

fc1.weight f4 [64, 8]
00000000: 75e5 943c b6a8 debe ca90 afbf d892 ef3e
00000010: e663 353f 061f 983e 338c 1d3e d859 ae3e
00000020: 1dae 85bd 4d82 853f 5692 36bf 2641 663e
00000030: 39d5 15bf 7d9b 893f c638 4cbe 88e7 06bf
00000040: b5f8 103f bc59 3dbe 3870 66bf 5163 afbf
00000050: ac42 2540 4cbe 893e 4d87 923e 8244 e63e
00000060: 762e 0fbe a61f 0040 2793 6d3f 5a96 b9bf
00000070: 2d9f 0cbf 7795 02bf 8043 f53c 7bb6 aa3e
00000080: 0832 393d e24c b6be 3ac0 85bf e460 b9be
00000090: 6134 153f cd2b 4d3d f131 e23d 8b17 9a3e
000000a0: 7856 963d 334a 34be 13d4 673e af5a 46be
000000b0: d80d d2be 4c01 adbe 4632 803e 4c87 893e
000000c0: 24c1 c7bd 6fe1 c3be 5d11 02bf 8756 f93c
000000d0: ade9 7a3f ca78 673e fb26 8b3e 6513 f3be
000000e0: bcc7 30bd f099 29bf a920 6dbf 7c73 08be
000000f0: 2205 263f 4b25 843f ed50 f43c b6b1 313e
00000100: bbf7 70be f1a6 a23d 4b38 df3d 329a e2be
00000110: 50e8 e13e 5710 483f fa6d 30be 5316 56bf
00000120: 4aed 82be f011 8d3f c1e7 3e40 8d0b 4e3f
00000130: 66ce 01bf cce1 edbe 519f 6f3e 9027 03bf
00000140: cdc3 81be 3844 a0be da4c 7cbd 5862 3cc0
00000150: 8a4b 21bf 62b6 753e 8899 e53e b312 ebbd
00000160: 9789 06bf b53f 66bd f3c8 eabe 9989 9b3e
00000170: 4ab8 843c 94df 443f 314a eb3e c011 01bf
00000180: ad08 88bd 8427 193e 1a79 4d3e a0bb 55be
00000190: dc27 233e a7e2 993f 37dc 51be 4a18 36bf
000001a0: d9ba 24be 8ef6 4cbf 2f9d 17bf f030 2ebf
000001b0: 15ad 953e 69b0 ad3e 66e9 ecbb 5ac4 cb3d
000001c0: 6576 53bc 3464 1bbf 8215 313f 162c 20c0
000001d0: 085d 45bf 7903 2d3e 5637 e33e 59e4 9e3e
000001e0: 307a ad3e a069 c43f 0b90 61bf a201 5d3e
000001f0: d675 adbf 8aca 2dbe 8dae 93be ffbe 9f3d
00000200: 27a8 75bc d033 8abd 375e 6dbe 98d7 9ebe
00000210: b7cd b4be e2bf 45be 99bf 8a3e 0bca febc
00000220: aa83 04be 06fa 833d 1fca 1ebe 6b3b ff3e
00000230: 8807 9a3e a880 8d3e 45ba 1b3f b81a 58bd
00000240: 6765 51be fda8 1d3f d60c e43f 2ca1 97bc
00000250: 301a 07be 665f ef3a 1b71 f63d 9541 a0bf
00000260: 4ece 953e e0bb d8be 2b70 fbbe 3006 26c0
00000270: 5e49 d03d b5ff 9dbe 08e8 553e 646a 61be
00000280: e6bb 38bf 90ec 33bf 1e9c 2abf 1f36 98bf
00000290: 48f1 d43c ffbb 073e 982a b3be 6461 96bd
000002a0: eb4a 80be 4e90 143d 42fc 9ebe 576f 91be
000002b0: 6348 b73e ad7c 5c3e be24 af3c 9367 993e
000002c0: bc70 4a3e 215f ffbd b5b9 4f3f e24a c33e
000002d0: c109 ddbe 1b4a bdbd b526 fb3e 32ab 2e3c
000002e0: 96d0 523f 096c 86bd de26 213f 87e9 ec3e
000002f0: 28ab 4ebe 39ab 163e 7187 fc3e ba7f 593e
00000300: 8080 b0be e04b b7be 369d 73bf 6784 71bf
00000310: 1be5 b93e fe14 36bc 95ba 02be bb1a 93bd
00000320: d53b 8cbd 16ac ddbd a5d1 04bf cdd7 c33e
00000330: c362 f53e d1dc 563e ebce 043e 7b02 113f
00000340: 64a4 57be e704 333f a1f2 5dbf b425 9b3e
00000350: 8caf aabf 7746 a63e f36f 58be 6776 5ebf
00000360: 051a ea3e 6ed4 3bbf 4829 663e 3945 bfbd
00000370: 5def 1f3f 40c9 a0be 08e3 513e 458a 553e
00000380: d0c1 7cbf 3dc4 603f e8cd 8ebf 9469 8a3f
00000390: 53eb 153f abf2 0ebe e80c 463e 2650 0d3f
000003a0: 7c31 3dbd 3eb4 4f3f ae74 203f 1099 13be
000003b0: 3da0 933f a37a 00be beb0 ffbe d464 6dbe
000003c0: b75d 19be 5ebc c63f c4b3 a93e 8079 af3d
000003d0: 6be8 473f f3c2 ccbe 0b7d aa3e 8f65 00bf
000003e0: 2b60 34be 4517 a73c 5051 f63e f3a5 07be
000003f0: 7b31 ed3f be35 18be 4c4f ddbd fd3c 3cbe
0.01817582 -0.4348809 -1.3716061 0.4679172 0.7085556 0.2971117 0.15385513 0.3405292
-0.0652735 1.043039 -0.7131704 0.2248579 -0.58528477 1.0750576 -0.19943532 -0.5269704
0.56629497 -0.18491262 -0.9001498 -1.3702184 2.5821943 0.26902997 0.2861885 0.44974142
-0.13982567 2.0019317 0.9280266 -1.4499009 -0.5493038 -0.51009315 0.029939413 0.33342347
0.04521373 -0.35605532 -1.0449288 -0.36206734 0.5828305 0.0500906 0.11044682 0.30096087
0.07340711 -0.1760643 0.22639494 -0.1937053 -0.41026187 -0.33790052 0.25038356 0.26861036
-0.097536355 -0.3825793 -0.50807744 0.030436767 0.9801281 0.22604671 0.27178177 -0.47475734
-0.04315923 -0.66250515 -0.9262796 -0.13325304 0.6485158 1.0323881 0.029823745 0.17352948
-0.23532002 0.07941998 0.10899409 -0.44258267 0.44122553 0.7814993 -0.17229453 -0.83627814
-0.25571662 1.1021099 2.9828951 0.80486375 -0.50705564 -0.46461332 0.23400618 -0.5123224
-0.25344697 -0.31302047 -0.06159673 -2.9435024 -0.6300589 0.23995355 0.44843698 -0.11478176
-0.52553695 -0.0562131 -0.45856437 0.30378416 0.016201157 0.76903653 0.4595504 -0.5041771
-0.0664228 0.1495648 0.20065728 -0.20872355 0.15933174 1.2022294 -0.20494162 -0.7113081
-0.16086902 -0.8006371 -0.5922422 -0.6804342 0.29233614 0.33923653 -0.0072299717 0.099495605
-0.012906645 -0.6069977 0.69173443 -2.5026908 -0.7709508 0.16895856 0.44378155 0.3103359
0.33882284 1.5344734 -0.8811042 0.21582654 -1.3551586 -0.16971794 -0.2884411 0.078001015
-0.014993704 -0.06748164 -0.23180471 -0.3102386 -0.35313198 -0.19311479 0.27099302 -0.031102201
-0.12940851 0.064441726 -0.1550679 0.4985002 0.3008387 0.2763722 0.608311 -0.052759856
-0.20448838 0.6158598 1.7816417 -0.01850947 -0.13193583 0.0018262684 0.12033292 -1.2520014
0.2925896 -0.42330837 -0.49109015 -2.5941277 0.10170244 -0.3085915 0.20889294 -0.22013241
-0.7216171 -0.7028284 -0.66644466 -1.1891516 0.025993958 0.13255309 -0.34993434 -0.073427945
-0.25057158 0.036270432 -0.31051832 -0.28405258 0.35797414 0.21531935 0.021379825 0.29961833
0.19769567 -0.12469316 0.8114274 0.3814307 -0.43171504 -0.0924265 0.4905297 0.010660933
0.82349527 -0.06563575 0.6294993 0.46271917 -0.20182478 0.14713754 0.49322084 0.2124013
-0.34473038 -0.35800076 -0.9516176 -0.94342655 0.36307606 -0.011113403 -0.12766488 -0.07182833
-0.068473496 -0.108238384 -0.5188239 0.3825058 0.47926912 0.20982672 0.12969558 0.5664441
-0.21058804 0.69929355 -0.8669835 0.30302203 -1.3334823 0.32475635 -0.21136455 -0.8689942
0.45722976 -0.73371017 0.22476685 -0.09339375 0.62474614 -0.31403542 0.20496762 0.20853527
-0.98733234 0.87799436 -1.1156588 1.081347 0.585622 -0.13959758 0.19340861 0.5520042
-0.04618977 0.811344 0.6267804 -0.14413857 1.1533276 -0.12546782 -0.4993953 -0.23182994
-0.14977156 1.5526235 0.33144963 0.08568096 0.78089017 -0.39992484 0.33298525 -0.50154966
-0.1761481 0.020396838 0.48108912 -0.13246898 1.8530725 -0.14864251 -0.1080614 -0.1838264

fc1.bias f4 [64]
00000000: 187f ffbe 5550 f8bd fe28 d03c 12a4 c93e
00000010: e178 d3be 8ef2 a2bd 8ccd 503e 2a5d 49be
00000020: 37ec 023e f123 8e3e 0fc2 d33e 62c9 f3be
00000030: ea04 75be 6161 c7be bed7 303f 2e7d 89be
00000040: f1ad 11bd 2bdf b9be 5ed0 193f 4b94 143f
00000050: b315 50be 322e a5be 7392 91be 1940 25bc
00000060: 1be4 37be 6b9a c1be 4e33 ffbd 5029 61be
00000070: 7b25 80bd 2eb0 c6bd 19d6 b5bd c9da aebd
00000080: 914e 1a3d 4789 243f cf01 dbbe 7c0a 023e
00000090: 907c 503e 8d45 443d 97be abbe 382c cabe
000000a0: e7f2 763e 71e0 aabe 676f fe3d 66ce 32be
000000b0: 5bcf 323e 546a 013e 9a59 8f3e 0b6c 65be
000000c0: 9b14 ab3e 4c82 c9be 4f18 2d3f 9035 55bd
000000d0: 1cde dfbd 5f1d 043e f928 c43c 0684 113e
000000e0: 6903 143f 42b4 bb3e f206 263e 7d1c f23c
000000f0: 5b48 dd3d 8a88 2cbe 1f5a 893e 6c44 133d
-0.49901652 -0.12124697 0.025410172 0.39382988 -0.4130316 -0.0795642 0.2039091 -0.19664446
0.12785421 0.27761796 0.41358992 -0.4761458 -0.23927656 -0.38941482 0.69079196 -0.26853317
-0.035566274 -0.36303076 0.6008357 0.5803878 -0.20320778 -0.32261807 -0.28432044 -0.010086083
-0.17958109 -0.37813124 -0.124609575 -0.21988416 -0.06257149 -0.09701572 -0.088787265 -0.08537824
0.037672583 0.6427197 -0.42774817 0.12699312 0.20360017 0.04791789 -0.33543846 -0.3948686
0.24116097 -0.3337436 0.12423592 -0.17461547 0.17461912 0.12638217 0.27998048 -0.22404496
0.33414158 -0.3935722 0.67615217 -0.052053034 -0.10931036 0.12901829 0.023945319 0.14210519
0.57817703 0.36660963 0.16213587 0.0295546 0.10804816 -0.1684896 0.2682657 0.035953924

fc2.weight f4 [64, 64]
00000000: e6de 5d3f 9143 3abf 14ea c1be de99 a33e
00000010: c2c4 f73e cce2 83bc 9b20 a0bc e44c a23e
00000020: 7b6e 5f3e 4711 ea3e 2171 dcbe dcb3 433f
00000030: e480 083e 012a 223e 961c d5be d530 93be
00000040: 8eff 1cbe ac9c dc3e 1193 4dbd 8cda c4be
00000050: 7ae3 373e 904d 4c3e 742c e53e 7078 5a3e
00000060: 925b c23e be91 3c3e c5aa 6ebf 0c76 943e
00000070: 1bd4 f83e 33e4 f8be 8372 b6bd ca96 3abf
00000080: 71c0 cabe 0790 943d 290b 543f 351d 383e
00000090: fff8 4c3f de9d 253f 309d 353d 44f7 943f
000000a0: f071 613e e273 153f 3361 e53e 520e c2be
000000b0: 04e9 043f 7584 fc3e 58cc 04bd 898a 953e
000000c0: dba7 903f 3759 073f c1e0 fb3e 031f 69bf
000000d0: 96c7 4a3f 9c14 fdbe 5b9b 163e 3cea 143f
000000e0: 401f 0bbf d68c d33e 261b 81be 8629 b33d
000000f0: 631e 013e ce9c 203d 85a6 9fbe 9a7a 863e
00000100: 3da0 473f 83cb a6be 5bb0 06bf 6436 aa3e
00000110: fe3a 953e 7108 4d3e b6e7 8dbe 340a 713e
00000120: 451e a83e 8dff a83e 5369 02bf 5569 333f
00000130: 7e6b bc3e 559d b1bd 86b5 0dbf b1af 41be
00000140: d7cf e0bd 5b58 ba3e fa7d 9a3e df99 99be
00000150: d3e3 593e 39d4 ca3c 5fd2 083e 3b44 4ebe
00000160: 8899 3e3d ab76 8d3e f728 18bf 36ac 693e
00000170: 531f 0e3f 1244 d73d edef 13bd b3f9 98bf
00000180: b240 0abf b310 fd3e 86fc 6d3f 1580 273f
00000190: 1e05 3f3f 8eff e43e ca4f af3d 447c 033f
000001a0: 84d0 d53e c0ae cc3e 87c1 4b3e 0e7e fbbe
000001b0: 782e 873f 657d 1b3e d839 043e d98d 93be
000001c0: 3dd0 253f e9aa 2e3f 7be2 3c3f b0f8 87bf
000001d0: 78d2 4e3f 569a 03bf a2e6 303e d39a 95bd
000001e0: c3dd eabe ac49 453e 5e7e cabe 3a82 54be
000001f0: 1b3e ab3d e6ed 203e 0c05 0ebf c915 083e
00000200: 01e8 cdbd 7e40 0cbd b15d 24bc 380b 823d
00000210: 3fee a6bd 1456 363d c2bd 54bd ed16 a5bd
00000220: 4f07 12be 79fe 1fbe 1d61 ad3d e798 40bd
00000230: b13d bcbb 0713 913c b412 383d 487d da3d
00000240: b7d7 8b3d 9be2 d5bd 930c 9dbd 691f dbbd
00000250: 070d adbd e25e 893b b0a3 a53d 3294 13be
00000260: 27d8 7f3d c6b3 b5bd 4bd3 68bd d5db 5e3d
00000270: cbfd 27bd 2477 9abc 1064 cdbd 77f4 d43d
00000280: 9321 2bbd 2c42 debd 6d67 c13c 3c05 b6bd
00000290: 5f53 d2bd 2ff9 2abd ccf7 ca3d 7f2b 81bd
000002a0: dc7d 0e3d 7de7 ba3d 778e 1d3d 85ae dfbd
000002b0: 7095 b6bc 601e 21bd 00db cdbd 1350 2ebd
000002c0: dd71 923d dc62 c23d 7014 3f3c eb8a 553c
000002d0: d458 8fbd ca22 673d a9cc b1bd e6b0 e2bd
000002e0: 13c9 47bc 60e7 1d3d e592 1cbe 84ff 883d
000002f0: 65b4 983c 5c5b b3bd b2b6 5fbd 03d7 7a3d
00000300: c8c3 473f 4e62 a3bf 9063 c43d eec7 c63e
00000310: 3d54 353f bb07 903e 2222 1d3e 3880 a13e
00000320: ed58 b43e 5c0a 5f3e 5900 a73e a17e aa3e
00000330: e783 e9be da38 443e 85f5 363e 98bf bbbf
00000340: 926f d33d 8135 683d 6e75 15be 779d 9ebd
00000350: bd6e 1c3f 29d6 a83d cc8a b13e b34d 653e
00000360: d025 153f 37a2 9e3e 2ebe 76bf 8908 c73d
00000370: 5df2 d3bd 6cbd 66bf 1320 8abf f06c a8bd
00000380: 3b23 2c3c 30b7 5abe 2a8b 383f a8ac e43d
00000390: c25e 433f 8e43 573f 0690 fe3d f6b9 4f3f
000003a0: 713a 163e 9832 1d3f ccc1 623e ff4a b5bf
000003b0: cc47 db3e 32a6 cc3e d9bc c1be ea0c 093f
000003c0: 76b4 6cbe ecff 4b3f cf16 4dbf 800a f2be
000003d0: 8e11 e73e fb75 82be d181 ab3e ce1e 4a3e
000003e0: 55b3 27bf 75e9 173f e9f4 423e dafc 523f
000003f0: a800 af3d 90f1 833e 2f50 dc3c da65 683e
0.8666824 -0.7275935 -0.378739 0.3195333 0.48392302 -0.016099356 -0.019546797 0.31699288
0.21819489 0.45716307 -0.4305506 0.7644632 0.13330418 0.15836336 -0.41623372 -0.28748193
-0.15331861 0.4308828 -0.05018908 -0.38447988 0.17957869 0.19951463 0.44760478 0.21335006
0.37960488 0.18414971 -0.93229324 0.28996313 0.48599324 -0.48611602 -0.0890856 -0.72886336
-0.39599946 0.072540335 0.8282953 0.17979892 0.8006744 0.6469401 0.04433936 1.163796
0.2201612 0.5837995 0.4480072 -0.3790155 0.51918054 0.49319807 -0.03242144 0.29207256
1.1301225 0.52870506 0.4919491 -0.91062945 0.79210794 -0.49429786 0.14707701 0.58169913
-0.5434456 0.41318387 -0.25216025 0.08748154 0.12609248 0.03921204 -0.31181732 0.26265413
0.7797888 -0.32577142 -0.5261285 0.33244622 0.2914657 0.20022751 -0.27715844 0.23539048
0.32835594 0.3300747 -0.5094196 0.700826 0.3680076 -0.08672587 -0.5535511 -0.18914677
-0.10977142 0.36395535 0.30174237 -0.30000207 0.21278314 0.024759399 0.133615 -0.20143215
0.046533138 0.276296 -0.5943751 0.228196 0.55516547 0.1051103 -0.036117483 -1.1951202
-0.5400497 0.49426803 0.92963445 0.6542981 0.74617183 0.44726223 0.085601404 0.5136149
0.41760647 0.39977074 0.19898044 -0.4911961 1.0561056 0.15184553 0.1291269 -0.2881916
0.6477087 0.6822954 0.7378308 -1.0622768 0.807899 -0.5140737 0.1727548 -0.07304921
-0.45872316 0.19266385 -0.39549536 -0.20752802 0.08361455 0.15715751 -0.5547645 0.1328956
-0.10054017 -0.034241192 -0.010032103 0.06349796 -0.081509106 0.044515684 -0.05193878 -0.08061013
-0.142606 -0.15624417 0.084657885 -0.04702082 -0.005744659 0.017709268 0.04493971 0.10668427
0.06828254 -0.10443612 -0.07668414 -0.106993504 -0.084497504 0.004192219 0.080878615 -0.14412001
0.062462 -0.0887218 -0.05684213 0.054408867 -0.04101352 -0.018855639 -0.10028851 0.103981905
-0.041780066 -0.10852465 0.023608888 -0.08887717 -0.10269808 -0.041741546 0.09910545 -0.06307124
0.034787998 0.09126184 0.038465943 -0.10921959 -0.022288054 -0.03933561 -0.100515366 -0.042556833
0.07150624 0.09491512 0.0116625875 0.013033609 -0.069993645 0.05642966 -0.08681614 -0.11068897
-0.012193936 0.038550735 -0.15290411 0.06689361 0.018640706 -0.0875766 -0.05461759 0.061240207
0.78033113 -1.2764375 0.095893025 0.3882441 0.7083166 0.28130898 0.15345052 0.31543136
0.35224095 0.21781296 0.32617453 0.33299735 -0.45608446 0.19162312 0.17867096 -1.4667845
0.10324015 0.05669165 -0.14595577 -0.07744878 0.61106473 0.08243973 0.34676206 0.22392921
0.5826082 0.30983135 -0.9638394 0.09718425 -0.103489615 -0.90132785 -1.0791038 -0.08223903
0.0105064465 -0.21358943 0.7208735 0.11165744 0.76316464 0.84087455 0.12429814 0.8114313
0.14670731 0.61405325 0.2214424 -1.4163512 0.42828214 0.39970547 -0.37839392 0.5353533
-0.23115715 0.7968738 -0.8011293 -0.47273636 0.4513058 -0.25480637 0.3349748 0.19738314
-0.65508014 0.593406 0.19038738 0.8241707 0.08545047 0.25770235 0.026893703 0.22695103

fc2.bias f4 [64]
00000000: 95ae 32be e460 8abd f9da fbbd 4448 853d
00000010: 2399 a93c 3633 d4bd 2e62 003f cb62 083d
00000020: 1832 363f 3147 d13e 582d d1bd ebfa 01be
00000030: 417f 4ebf 2cc4 9cbd 51a0 6c3d 6c40 673f
00000040: c983 353d d1c4 943d 7747 6abd 4b54 4bbd
00000050: 2b63 c5bd 3939 3a3f d09b 1abe 8218 04be
00000060: c283 09be 3880 13be e4e1 42be 9645 20be
00000070: e4fd c33b e86a 223e 1135 c73e 9164 1d3f
00000080: cff2 adbd 6f54 acbd fa56 03be d3aa f2bd
00000090: 15de a4be ab5d c2bc a4ec 873e 7cff e7bc
000000a0: 311e c4bd 3532 1fbe 6650 54bc f3e1 56bc
000000b0: a356 d3bc e87b c83d 32a0 dbbd 78cd e2bd
000000c0: 179e 90bd d04c 91bd 7c9e c6bc 4f78 41be
000000d0: af72 a23e 2763 063f 1c41 48bd 3950 223e
000000e0: a5a3 46bc c9af 58bc f05d 4b3e d4d1 443d
000000f0: 0a50 54be 4c70 0cbe 0d44 3cbd b5c5 f5bc
-0.1744941 -0.06756762 -0.12297625 0.06507924 0.020702904 -0.1036133 0.5014981 0.03329734
0.71170187 0.40874627 -0.10213727 -0.12693374 -0.80662924 -0.07654604 0.057770077 0.90332675
0.044315133 0.07264102 -0.05719706 -0.049640935 -0.096380554 0.72743565 -0.150985 -0.12899974
-0.13429168 -0.1440438 -0.19031483 -0.15651545 0.005981194 0.15861094 0.38907674 0.6148158
-0.08493578 -0.08414542 -0.12826148 -0.118489884 -0.32200685 -0.023726305 0.2654773 -0.028320067
-0.09576071 -0.15546496 -0.012958622 -0.013115394 -0.025798148 0.09789258 -0.10723914 -0.11074346
-0.07061403 -0.07094729 -0.024245493 -0.1889355 0.31728122 0.52495044 -0.04889022 0.15850915
-0.012123977 -0.013225504 0.19860053 0.04805167 -0.20733657 -0.13714713 -0.045963336 -0.0300015

fc3.weight f4 [4, 64]
00000000: 2c97 6fbf 468d 7ebf eb49 3fbd 5536 12bf
00000010: d57d 1bbf a1e4 18bf 51c6 713f 084a 6fbd
00000020: 0f03 d23e 6cb5 173e 3918 2fbf 1636 93bd
00000030: a178 3d3f 7abe 41bf 73ca e43d 7a66 ff3f
00000040: a232 88be d0ce fdbe e3f2 8ebc 2426 f1be
00000050: bfee 33bf 17ad ad3f 5059 11bf b86e a2bc
00000060: cdef 07bf ba44 ce3d 37c2 aebe ccf1 4abf
00000070: 412c 03bf 0012 6bbe b03e 293f 47ed 0a40
00000080: 7358 37bf 4a80 d2be 6a84 e2be 1abe d4bd
00000090: a931 38bf 1d17 86be b93f b3bf ed58 8bbf
000000a0: 9581 fcbe 8ffc 0bbf d855 5c3d 7711 0a40
000000b0: 8645 2abf ccf3 05bd daa0 983d f22c 14bf
000000c0: 76ac 2ebf 8c6a f73f 744c a8be a829 a4be
000000d0: 3b78 ec3f bda0 933f de7e 00bf c3d8 4bbf
000000e0: fa22 bcbf c108 1cbf b4fa 88be 8552 41bf
000000f0: c9e3 40bf c0e1 c7be ae73 9c3d 9878 1bbf
00000100: 8054 03bf 0d2c 66bf 92d0 353d a3c1 c7be
00000110: 2197 43bf e8df e9be 198e 353f c8c8 07bf
00000120: 50dc 6d3f 57f9 74bf 8a2e f2be fc9b 35bd
00000130: aeff 3fbd 8480 e2be ad3c 8f3f 7096 d53f
00000140: c084 2dbf 0fbe 8fbe 8807 3f3d 1e71 d2be
00000150: 630a d8be 3c19 ac3f d681 11bf 1919 57bd
00000160: 5fb3 edbe 687c 8f3d e0f3 b4be 03ed 08bf
00000170: 2f76 07bf 817f aabe 7fbf 7abe 0348 fe3f
00000180: 7175 fabe effd 20bf 70ff ecbe cc87 ff3d
00000190: 99c6 1abf bc93 08bf 6f46 efbe d6f6 3ebf
000001a0: 43c9 17bf 0618 54bf a1e8 adbd 2dba 2240
000001b0: 1c71 c1bf 601a 2f3c 176b ac3d ac10 01bf
000001c0: 5cc9 c5be 538f 0e40 5589 ddbe db4c e3be
000001d0: fde5 1540 4057 7f3f 3bd2 f2be bfde 4fbf
000001e0: 27bf 98bf 16f2 a4be a6b7 c5bd 19da 01bf
000001f0: 9f74 dabe 6aa2 a2be 5df0 b43d 1289 23bf
00000200: 00b0 6bbf 99c9 c4bf b34f a4bd 1d45 40be
00000210: 5d4a 9ebe e2c7 a1be ae5f bb3f 3199 9bbd
00000220: 5c39 853f 6da2 393f ae2c bbbe cb0b b13c
00000230: 3553 15bc b4c9 14bf f392 f0bf 6010 c33f
00000240: a8e5 adbe e6a3 a8bf f568 a1bd cf6b 40bf
00000250: 3420 67be d5f7 a13f 4329 62bf 2393 a73a
00000260: c038 16bf 5bb6 c43d 46a5 97bf 869e 39bf
00000270: 3d3b 24bf bebb 083f e44b 86be 1e72 f33f
00000280: d33b edbe ae2a 24bf 3d19 8bbe 944e 0ebd
00000290: 5b28 6abf 30c9 d8be aa83 e3bd 9ff8 38bf
000002a0: c146 37bf 124f 70bf 8177 f7bd dffe f93f
000002b0: 24de d9be c0fa 4dbb d66e 98bd 9dcf 7abf
000002c0: 956b 1abf 0eee e43e f989 0dbf 1eae 57bf
000002d0: 439f e43f d7e6 103f e622 abbe 37e3 debf
000002e0: bc70 e1be 4c23 1dbf 2632 293f 8b7d cf3e
000002f0: cec7 d7be 3d2d e8be b0de 753d 6bfa 25bf
00000300: fd3a 04bf c390 febe 7029 d03c 9c4b 0ebf
00000310: b378 0bbf aa7c f6be 5573 8b3f b24c 42bf
00000320: 4cd2 453d 23c0 d73e bb94 d4be 8012 23bb
00000330: eac5 d9bf 4f95 d3be 53be d03e b01f 1a40
00000340: 88f4 17bf c12c 70bf 8663 8a3d 4347 cabe
00000350: 6dcf c3be c850 3e3f a2d1 26bf 960f c13b
00000360: 9f95 98be 4400 9e3d cf35 04bf 5a0d 27bf
00000370: 1fa3 c5be e7b2 ccbd 4b17 263e 7f46 1940
00000380: 6ddc dbbe 7fe4 11be 802d fabe a461 9bbd
00000390: 3500 6abf 40ee 17bf 1451 97bf c17a 40bf
000003a0: c897 99be 8008 b9be b686 d43c 407d 0b40
000003b0: 72df 53bf 9064 f3bd 1868 2d3d dbfe 92be
000003c0: 6613 c3be 5303 b63f 1007 03bf 1c99 e2be
000003d0: ede8 f83f e673 bb3f 8883 f9be 4566 94bf
000003e0: 2b89 0ebf efa9 e7be 0080 833d b0eb 95bf
000003f0: 3807 c6be 3f82 2dbf e0e7 7b3d 0069 0cbf
-0.93590045 -0.99434316 -0.046701353 -0.57114154 -0.6073888 -0.5972386 0.9444323 -0.05842021
0.4101796 0.148153 -0.68396336 -0.071880504 0.7401219 -0.7568127 0.111714266 1.9953148
-0.2660113 -0.49571848 -0.017449802 -0.4709941 -0.7028617 1.3568448 -0.56776905 -0.019828185
-0.5310028 0.10071702 -0.3413255 -0.792752 -0.512394 -0.22956085 0.6611128 2.1707323
-0.7161934 -0.41113502 -0.4424165 -0.103878215 -0.71950775 -0.2618951 -1.4003822 -1.0886513
-0.49317613 -0.5468225 0.053792804 2.157316 -0.66512334 -0.032703206 0.07452555 -0.5788108
-0.68231905 1.932939 -0.3287083 -0.3206303 1.8474191 1.1533428 -0.50193584 -0.7962763
-1.4698174 -0.6095086 -0.2675377 -0.7551654 -0.7534757 -0.3903942 0.07639252 -0.60730886
-0.5130081 -0.89910966 0.04438836 -0.3901492 -0.7640248 -0.4567864 0.7091995 -0.5304074
0.92914295 -0.9569296 -0.4730113 -0.04433821 -0.046874695 -0.44238675 1.1190392 1.6686535
-0.67780685 -0.2807469 0.04663804 -0.41101927 -0.42195424 1.3445201 -0.5683874 -0.05251417
-0.46425912 0.070061505 -0.35342312 -0.5348665 -0.5291471 -0.33300403 -0.24487112 1.9865726
-0.48917726 -0.6288747 -0.46288633 0.12477073 -0.60459286 -0.53350425 -0.46733424 -0.7459539
-0.59291476 -0.82849157 -0.08491636 2.5426133 -1.5112643 0.010687441 0.08418863 -0.50416064
-0.38630188 2.2274978 -0.4326884 -0.44394574 2.3421624 0.9974251 -0.47426018 -0.8119926
-1.1933335 -0.32215947 -0.09654169 -0.50723416 -0.426671 -0.31764537 0.08834908 -0.6388103
-0.9206543 -1.5374023 -0.08023014 -0.18776365 -0.3091611 -0.3159781 1.4638574 -0.07597578
1.040813 0.7251347 -0.36557525 0.021612069 -0.009114076 -0.58120275 -1.8794845 1.5239372
-0.33964276 -1.3175018 -0.07881347 -0.751645 -0.22570878 1.2653757 -0.8834421 0.0012784939
-0.58680344 0.09605094 -1.1847312 -0.7250751 -0.6415289 0.5341147 -0.26229775 1.9019201
-0.46334705 -0.64127624 -0.27167693 -0.034742907 -0.9146783 -0.42340994 -0.11109097 -0.72254366
-0.71592337 -0.9387065 -0.120833404 1.9530905 -0.42552292 -0.0031429976 -0.07443015 -0.9797304
-0.6032041 0.4471287 -0.55288655 -0.84250057 1.7861103 0.56602234 -0.33425063 -1.741309
-0.44031322 -0.61381984 0.66092145 0.4052547 -0.42144626 -0.45347014 0.060026824 -0.6483523
-0.5165251 -0.4971982 0.025410384 -0.5558412 -0.5448105 -0.48141986 1.0894572 -0.7589828
0.048296258 0.42138776 -0.41519722 -0.0024882853 -1.7013524 -0.4132485 0.40770206 2.408184
-0.593575 -0.9381829 0.06757264 -0.39507493 -0.3824419 0.7434201 -0.65163624 0.0058917506
-0.29801652 0.077148944 -0.51644605 -0.6525475 -0.38601014 -0.099950604 0.16219823 2.3949277
-0.4294161 -0.1424732 -0.4886284 -0.07586983 -0.91406566 -0.59347916 -1.1821618 -0.7518731
-0.29998612 -0.36139297 0.025943141 2.1795197 -0.82762825 -0.11884415 0.0423356 -0.28710064
-0.38100737 1.4219764 -0.5118265 -0.44257438 1.9446083 1.4644744 -0.48733163 -1.159371
-0.5567805 -0.45246837 0.064208984 -1.1712551 -0.38677382 -0.67776865 0.06150043 -0.5484772

fc3.bias f4 [4]
00000000: e8c4 e73e 8e53 143f 2d64 f93e 5409 6bbe
0.45267415 0.57939994 0.4870924 -0.22952777
