dqn/solution/checkpoint.pth (torch, 22969 bytes, 6 tensors)

fc1.weight f4 [64, 8]
000000 ac 6d 98 be 78 92 38 bf e1 6d 52 bf 70 b6 04 3e
       -0.29771173 -0.72098494 -0.8219891 0.1296022
000010 f0 1a 5d 3d 61 3c 2c 3e 9a 8c 35 3e 9e e6 e0 3e
       0.053980768 0.16819908 0.17729416 0.43925947
000020 f8 e2 34 bf bd d3 02 bf f7 0b 9c 3e ac be 28 bf
       -0.70658827 -0.51104337 0.30477878 -0.6591594
000030 b3 25 d0 be e5 ec 82 be 2a 6f ce be f5 4e 47 bd
       -0.40653762 -0.2557136 -0.40319186 -0.048659284
000040 29 a7 c7 3e 94 dd 57 3f f6 d3 ea be d0 30 89 bf
       0.3899472 0.84322476 -0.45864838 -1.0718021
000050 08 b7 14 3f 3b 26 f3 3d 9c a0 b6 3c 93 3c cd 3e
       0.58091784 0.11872526 0.022293381 0.40085277
000060 89 e9 8a 3e dc 87 87 be 12 48 84 3f 4d e2 41 be
       0.27131298 -0.2647084 1.0334494 -0.18933983
000070 d4 01 55 bf 2f e3 9a be b8 db e6 ba 29 88 9f 3e
       -0.83205914 -0.30251452 -0.0017613089 0.3115857
000080 be 38 ef be 08 36 37 bf 7e a8 1d bf 73 9f 35 be
       -0.46722978 -0.7156682 -0.61585224 -0.17736606
000090 49 3d 80 be dc d1 88 3e a2 6f 2c 3e af 29 aa 3e
       -0.25046757 0.2672261 0.1683946 0.33234927
0000a0 40 dc 87 3d bd 63 46 be 5f 3d 89 bd c4 fe 43 bd
       0.06633806 -0.19373985 -0.06701159 -0.047850385
0000b0 4e dd ef be 83 90 2c 3b 5b 42 ac 3e 85 f5 d1 3e
       -0.4684853 0.0026331253 0.33644375 0.4100763
0000c0 b7 7c 14 bf a0 10 58 be 99 cf 9e 3e 81 d7 98 3e
       -0.580028 -0.21100092 0.3101776 0.29851916
0000d0 bb 2f 60 be f5 e2 b2 3e 49 26 17 3f 81 ff 8a be
       -0.21893208 0.3493878 0.59042794 -0.2714806
0000e0 85 7d f0 bd 45 a6 08 bf 0a 3a ab be fe b6 7e bf
       -0.11742691 -0.5337871 -0.33442718 -0.99497974
0000f0 98 04 a4 3e 90 dc 04 3e 25 2f 15 be 26 eb 12 3e
       0.32034755 0.12974763 -0.14568765 0.14347515
000100 47 c9 44 bb e9 4e db 3d a1 3d c4 3e 89 85 20 bf
       -0.0030027197 0.1070841 0.3832827 -0.6270376
000110 f5 1a 26 3e a0 07 6c 3f 01 64 85 be c1 a4 52 bf
       0.16221221 0.92199135 -0.2605286 -0.82282645
000120 66 ba d2 3d bd 8b 04 3f 77 31 10 3e 86 42 62 3e
       0.10289459 0.51775724 0.1408137 0.22095689
000130 02 e0 a4 be 0b bc 8c bf 34 4d 85 bf 23 0f 3a be
       -0.32202154 -1.0994886 -1.0414186 -0.18169837
000140 f5 54 0c be 42 8b 6f 3f 33 f0 80 3f 42 05 6d bf
       -0.13704284 0.93571866 1.0073303 -0.9258615
000150 69 55 d2 be 89 49 fb bc 90 a0 b6 3d 16 e9 07 bc
       -0.41080788 -0.030674713 0.089173436 -0.008295318
000160 90 79 15 3e 63 74 45 bd 9f cf 30 3e b9 ee 88 be
       0.14597154 -0.0482067 0.17266701 -0.2674463
000170 da fb 28 be 5d ee 7c 3f 2c 1c 49 3d 77 ee 41 bf
       -0.16502324 0.98801214 0.049099132 -0.75754493
000180 fb 0e 3a bd f3 f0 c4 3e dc 96 34 bf cd ac 8c bf
       -0.045424443 0.3846508 -0.70542693 -1.0990235
000190 73 80 2d 3f ab 5d 56 3f 63 5e 11 be 24 c6 04 3e
       0.6777412 0.83736676 -0.14196162 0.1296621
0001a0 28 d4 31 bf 79 5f 02 bf 19 c6 3f be 22 4c d6 be
       -0.6946435 -0.5092693 -0.18727912 -0.4185496
0001b0 32 42 25 bd cb 32 aa bc 17 f5 c2 3d 5f 60 d9 3e
       -0.040346332 -0.020776173 0.095194034 0.42456338
0001c0 9a d5 3d be 82 3b 44 3f 00 66 2d 3f 47 38 46 bf
       -0.18538514 0.766533 0.67733765 -0.7742962
0001d0 18 18 02 bf 70 6a fa 3d 31 16 4c 3e e3 67 e5 3d
       -0.50818014 0.122273326 0.1993034 0.112014554
0001e0 b0 53 db 3e 59 af 3e 3e 1f 55 ce be ed e6 53 be
       0.42837286 0.18621577 -0.40299317 -0.2069356
0001f0 f2 33 ac 3e 00 28 86 bf 1a 63 81 bf d4 25 8e 3e
       0.3363338 -1.0480957 -1.0108368 0.27763236
000200 67 fa 84 be 8c 7e 29 be 2c 3c d3 3c e2 9a cb bc
       -0.25972292 -0.1655218 0.025785528 -0.024854127
000210 a5 d4 c3 be db 3b 51 bb cf 19 bd 3e e4 3a 3e 3e
       -0.38248172 -0.0031926546 0.36933753 0.18577152
000220 c1 0e 60 be 99 c1 0e 3e d5 f0 b6 3e 2d f7 d9 bc
       -0.21880628 0.13941039 0.35730615 -0.02660712
000230 49 c3 41 3e 37 46 96 3f 33 5a bd 3e c9 b8 2c bf
       0.18922152 1.1740178 0.3698288 -0.6746946
000240 c3 eb 47 bf 9a d3 cc be 06 ee 0e 3f 46 1d 3c bf
       -0.7809412 -0.4000519 0.55831945 -0.7348217
000250 f4 3f 20 c0 21 a4 fd bd ee 80 f7 3c 6f e9 a5 bd
       -2.5039034 -0.12384821 0.030212846 -0.081011645
000260 98 f5 60 3d 2b 2a 1d 3f 1a 01 72 3f dd 8d 9b bf
       0.054921716 0.6139247 0.9453293 -1.2152668
000270 9a 59 19 be 4d e9 1b be 1e 8e 08 3e 2b 62 08 be
       -0.14975587 -0.15225716 0.13335463 -0.13318698
000280 90 63 4d be de fb ea be c5 df f3 be 56 28 eb be
       -0.20057511 -0.45895284 -0.4763166 -0.4592921
000290 11 d0 d6 3d ba 92 3e 3d 0f 2d 48 3b b7 c1 9e 3e
       0.10488904 0.046526648 0.0030544435 0.31007168
0002a0 ba 98 f1 3e 2e f5 d7 3d 8a 5a be be 79 1c b8 3c
       0.47186834 0.10544811 -0.3717845 0.022474514
0002b0 75 60 0f 3f 0b 2d 17 bd 2a 1d 9f bc 07 a9 df 3e
       0.56006557 -0.03690819 -0.019423086 0.43683645
0002c0 e1 bc 2c 3e 1c 35 4d bf be 6d 3c be 85 39 3e 3f
       0.16868927 -0.80159163 -0.18401238 0.7430652
0002d0 9a 58 69 bd 9a 8e 60 bd 1a 03 d9 3e fc 2c af 3e
       -0.056969263 -0.054823495 0.4238518 0.34214008
0002e0 af cc e3 3e 55 89 fb 3d a9 e3 4f be 24 2d d4 3e
       0.444921 0.122820534 -0.20301689 0.4144069
0002f0 04 a2 3a bf e2 d8 89 3d 3b 0a f8 3e 55 bb c6 3e
       -0.72903466 0.0673082 0.48445305 0.38814798
000300 fe 79 85 bf a7 f3 1d bf 7c 30 ce be 60 df 4a bf
       -1.0427854 -0.6169991 -0.40271366 -0.79247093
000310 ec 14 c1 3d a6 32 23 3e 4a 4f d8 bd 1d 16 b7 3b
       0.09427819 0.1593729 -0.10561998 0.005587353
000320 f5 61 e7 3c 5d 60 88 3d 54 25 cb be 0d b5 c2 bd
       0.028244952 0.06659005 -0.39676917 -0.09507189
000330 7b ae a9 3e 5c be 5f 3f b8 df 33 3e 41 20 de 3e
       0.3314093 0.8739984 0.1756581 0.43383983
000340 89 66 52 be 3f 3e d9 be 1c ec ac 3d 00 4f 1f bf
       -0.20546927 -0.42430303 0.08443472 -0.6222992
000350 50 3e a1 be 2b 4a 41 bd d7 3d 49 be 48 05 74 bd
       -0.31492853 -0.047189873 -0.19652496 -0.05957535
000360 33 d3 c9 bc 08 24 11 bf 48 a2 1a 3f 48 55 31 bf
       -0.02463684 -0.56695604 0.6040387 -0.69270754
000370 8b 12 4a 3d c6 d2 15 be 90 5c d5 3c 43 df c1 3d
       0.04933409 -0.14631185 0.026045114 0.09466412
000380 ac 50 8e bf 7c 14 1f 3f 9a 8e 8d bf 01 04 17 3e
       -1.1118369 0.6214063 -1.1059144 0.14747621
000390 7a 08 03 3e c9 2d 2e bd ca 9e 5b 3d 57 cc be 3e
       0.12796202 -0.042524133 0.05361823 0.37265274
0003a0 0f 8d a7 3e 10 43 0c be 3f 0d 33 3d 65 a3 ab be
       0.32724807 -0.13697457 0.043713804 -0.33523098
0003b0 d1 22 cf 3c a7 1c 32 bf a5 85 42 bf 13 06 43 3e
       0.025285156 -0.6957497 -0.75985175 0.19045286
0003c0 d9 08 b4 3e 8f ae 9f 3f 86 13 07 be e7 d3 54 be
       0.35163 1.2475146 -0.13191041 -0.2078396
0003d0 0c c2 97 be a1 da 65 be fb 0e b1 3e 46 64 f4 3c
       -0.29640234 -0.22446682 0.34581742 0.02983297
0003e0 b0 45 ec bd 4d 33 5b bd 11 e4 f5 3c 16 a9 79 bd
       -0.11536729 -0.05351572 0.030015977 -0.06095227
0003f0 eb 63 36 40 b0 6a 9a be f1 73 05 bf 54 e5 31 bd
       2.8498485 -0.3015952 -0.5213004 -0.043431595

fc1.bias f4 [64]
000000 c6 86 bb be 82 28 85 be 20 dd 39 be 2d 60 93 be
       -0.3662626 -0.26007468 -0.18150759 -0.28784314
000010 4d 0d a7 be 2e ee 25 be ae 78 dd 3e d9 fb 2f be
       -0.32627335 -0.1620414 0.43256134 -0.17185916
000020 0e 5a 19 3e e5 8b e0 3d 30 26 c1 3e 40 78 3c be
       0.1497576 0.10964183 0.37724447 -0.18405247
000030 2b 2f 4a bb e6 6d 08 be 6e c4 e2 3e 86 a5 e7 be
       -0.0030850868 -0.13323173 0.4429049 -0.45243472
000040 5e 2e 44 bd ff 3d fb be d2 de 98 3e f4 e3 47 3f
       -0.04789578 -0.49070737 0.29857498 0.78082204
000050 e6 2d 1d be d4 4b c0 be 86 9d ee be 15 27 a0 be
       -0.1534954 -0.37557852 -0.46604556 -0.31279817
000060 29 42 23 bd 16 20 b4 be 76 35 9c be e2 73 0e bf
       -0.039858017 -0.3518073 -0.30509537 -0.55645573
000070 97 c1 42 bc 16 6e b2 be 7d 3b 30 3f 10 ed 31 3d
       -0.011886976 -0.34849614 0.6884077 0.04343897
000080 f9 ba 79 bd 9f 2a 20 3f e3 7f f2 be a9 22 1c 3e
       -0.060969327 0.62565035 -0.47363195 0.15247597
000090 b6 9f 77 be ef 4d 9d 3e 97 be ab be 1d 2a 44 be
       -0.24182019 0.3072352 -0.33543846 -0.1915669
0000a0 0d 15 92 3d 1b f1 14 be 75 79 88 3d 49 d7 9f be
       0.07132921 -0.145451 0.06663791 -0.31218937
0000b0 4e 19 b8 3d 76 c5 21 bc 02 c2 f8 3e 4c 14 11 3d
       0.089892015 -0.0098737385 0.48585516 0.035419747
0000c0 7d 22 14 3e 63 ab af 3d 23 10 35 3f c9 b9 2d 3f
       0.14466281 0.08577611 0.7072775 0.6786161
0000d0 fe 10 87 bc 9e c5 22 ba 5d 29 4e be 9b 5c 6b 3e
       -0.016487595 -0.0006209257 -0.20132966 0.22984545
0000e0 a5 bf b9 3e ad 77 8f be af 66 0e 3f 71 6e e5 bc
       0.36279026 -0.28020993 0.5562543 -0.028006764
0000f0 d6 ae 23 be 16 7b cb bd ed 9f ba bd 1e 68 96 3e
       -0.15984663 -0.09935586 -0.09112535 0.2937631

fc2.weight f4 [64, 64]
000000 43 51 c7 bd 80 42 ee 3e 62 88 89 be 6c 23 38 3f
       -0.09732296 0.4653511 -0.26861864 0.7192905
000010 71 c6 81 bd 0c 61 36 3e cf 84 dc bd 72 f9 d8 3e
       -0.06336678 0.17810458 -0.10767519 0.42377812
000020 db 0b d6 be 90 fa ab 3e c7 3a de 3d e5 ad c2 bd
       -0.4180592 0.33589602 0.10851055 -0.09505824
000030 a3 68 d5 be eb 9d be bb d6 ce b0 3d 1e 94 e2 3e
       -0.41681394 -0.005817165 0.08633201 0.4425363
000040 42 a9 18 3e a9 27 63 be 19 69 26 3f b4 19 01 bd
       0.14908317 -0.22183098 0.65004116 -0.031518653
000050 c4 2f db be 8e de 60 bd 1f 89 12 3f 8c 20 15 3f
       -0.4280988 -0.054899745 0.5724048 0.5825279
000060 fa b5 3e 3e c0 40 1c 3c ba 02 60 3e 9c 69 2d 3f
       0.18624106 0.009536922 0.2187604 0.6773927
000070 3f 02 55 be c9 d6 f5 3e 24 8e 5d 3d 27 77 a3 bf
       -0.20801638 0.4801543 0.054090634 -1.2770737
000080 80 02 ca bd ca 2d 36 bf 55 1a bc bd b0 e1 81 bf
       -0.09863758 -0.7116362 -0.0918471 -1.0146999
000090 8c 5c 0e bf 62 c6 1b 3d 30 9d 35 3d 87 cb 14 3f
       -0.55609965 0.03803099 0.04433936 0.5812306
0000a0 39 67 97 be de 08 18 bd eb 50 cf 3e cf 06 43 be
       -0.2957094 -0.03711783 0.40491423 -0.19045566
0000b0 ae 2c 10 3f 1e d9 94 3e c0 cd 77 be 81 6e 80 3d
       0.56318176 0.29071897 -0.24199581 0.06271077
0000c0 e2 27 58 3f a1 1e 9f be b2 44 a4 be 73 5b 8f be
       0.84435856 -0.31078056 -0.3208366 -0.27999458
0000d0 f9 36 9d be a4 1d 90 be 9c 0b 17 3f 89 51 c3 be
       -0.30706003 -0.28147614 0.5900209 -0.38148144
0000e0 39 fd 08 be ef 94 be 3e 5e 7f 1f 3e c9 40 47 3e
       -0.13377847 0.37223002 0.1557593 0.19458307
0000f0 44 e2 9b bd aa 39 be 3d a9 fc d7 bc 89 77 23 3e
       -0.07611516 0.09288342 -0.026365595 0.15963568
000100 44 2c bb bd 2c fa 15 bb 75 78 9d 3c d8 85 0b bc
       -0.091393024 -0.002288471 0.019222477 -0.008515798
000110 65 f7 c5 bd 2c ba d1 3d a5 18 a1 bd 9e 37 a8 3d
       -0.096663274 0.102405876 -0.07866029 0.08213733
000120 4e df fb bd 8d a9 3b bd c8 8e 58 3d 2a 40 7a bd
       -0.12298451 -0.045815993 0.05287054 -0.061096348
000130 58 44 aa 3d db 00 cd bd 97 be f8 bd e0 de 66 bd
       0.08313817 -0.10009929 -0.12145727 -0.056364894
000140 70 ee 42 3c 1c 87 d7 3d e7 26 8b bd 5a 15 e4 3c
       0.011897668 0.10523817 -0.067945294 0.027842212
000150 f2 bc 38 bd e9 3a 54 bd 06 a3 97 3d 78 d8 eb bd
       -0.045102067 -0.051813994 0.07404141 -0.115158975
000160 5a bb 88 bb 59 ec cc 3d dc f6 5c bd b0 0d a6 3d
       -0.0041727247 0.10006017 -0.05394636 0.081080794
000170 43 ef 5b bd 95 80 aa 3d e2 31 fc bd 56 3b d0 bc
       -0.053694975 0.08325306 -0.12314202 -0.025418919
000180 29 2f 21 bd c4 7b 43 3c 07 46 0a 3d 90 1d 94 3d
       -0.039351616 0.0119313635 0.03375819 0.07232201
000190 41 ba df bc 09 f0 d8 bc ca 4f af 3d 90 88 0a bd
       -0.027310492 -0.026481645 0.085601404 -0.033821642
0001a0 22 80 b3 3d 00 56 d4 bd 56 66 07 bd 00 00 dc bb
       0.08764674 -0.10367966 -0.03305658 -0.006713867
0001b0 93 f6 1f 3d 3a 5e 9d 3d a8 66 d4 bc 1b ba 06 be
       0.03905351 0.07683988 -0.025927857 -0.13156931
0001c0 28 b1 7d 3d 4c c5 b2 3b 44 f9 d7 3c 67 b6 c9 bd
       0.061936527 0.0054556485 0.026363976 -0.098492436
0001d0 ae c2 a4 3d ac ad cb 3d 40 e4 79 3b e0 a9 fd bd
       0.08044945 0.09945235 0.0038130432 -0.12385917
0001e0 65 6e 6b 3d 3a 9d cb bd c6 22 36 3c 72 5c 21 ba
       0.057478327 -0.09942098 0.011116689 -0.0006155438
0001f0 19 91 ab bd dc 98 f6 3c a8 a8 07 be cc f6 b1 bb
       -0.083772846 0.030102186 -0.13247931 -0.005431032
000200 50 49 80 3e 12 b0 ef 3e d2 a0 30 3e 80 2c 80 3e
       0.25055933 0.46814018 0.17248848 0.2503395
000210 30 1c e4 3e ad 8a ca 3e f1 05 53 3e 11 30 ea 3e
       0.44552755 0.39558926 0.20607735 0.45739797
000220 54 39 0a bf 64 e9 b0 be 54 f2 7c 3e e4 15 90 3e
       -0.53993726 -0.34553063 0.24701816 0.281417
000230 60 69 e4 3e 1d 45 f2 3e c7 c9 67 3e 01 1f 0c be
       0.44611645 0.47318354 0.22635566 -0.13683702
000240 93 8a 0e 3f 65 86 65 3e fe ca 8a 3e f6 9e e7 bc
       0.556802 0.22414549 0.27107996 -0.02827404
000250 1d 11 cf 3e f4 96 63 3e fb 48 2d 3f 25 48 8e 3e
       0.40442744 0.22225553 0.67689484 0.27789417
000260 a5 07 17 3f 00 78 59 3e cb 1a 8b 3e 96 64 31 3f
       0.5899604 0.21237183 0.2716888 0.69294107
000270 42 67 f1 3e ce 05 81 be 60 a2 87 bd b8 23 6c be
       0.47149092 -0.2519974 -0.066227674 -0.230605
000280 af 92 58 3e 22 ea 74 bf 93 45 4f 3f 4c 3a 22 bf
       0.21149705 -0.9566976 0.80965537 -0.63370204
000290 26 59 28 bf b6 ea b3 3d cc f7 ca 3d 1c 6a 8e 3e
       -0.6576103 0.08785002 0.09910545 0.2781533
0002a0 55 19 2f 3e 9f 9d 1f 3f 45 be 3a 3e 1b 00 57 bf
       0.17099507 0.62349886 0.18236645 -0.83984536
0002b0 cc dc b0 bd 96 6c 26 3f 7a 6b 43 bf 3b ae c1 bd
       -0.08635864 0.6500944 -0.7633587 -0.0945706
0002c0 10 29 80 3e 4b fd db 3e b1 7a 83 bf 07 9d 80 3d
       0.25031328 0.42966685 -1.0271817 0.062799506
0002d0 75 17 67 be 09 a3 9f 3d e3 ac 84 3d da 50 48 3d
       -0.22567542 0.07794768 0.06478288 0.04890523
0002e0 1d 58 7a be 40 4b 02 3f c0 3d b0 bc 89 7c 52 3e
       -0.24447675 0.5089607 -0.02151382 0.20555319
0002f0 ce 39 91 3e 10 cc c0 3e 9e 1c 35 be e5 06 bc 3d
       0.28364414 0.37655687 -0.17686698 0.091810025
000300 37 5f f2 3d 74 d2 9f 3e ee ed fd 3d 6f 30 4e 3e
       0.11834567 0.3121525 0.12398897 0.20135663
000310 4e b5 8e 3e d8 79 b5 3e 5f a6 68 3e dc 32 db 3e
       0.278727 0.35444522 0.22719716 0.4281224
000320 3d 4a 0b 3f 74 74 db 3a 9c f3 ab 3e 66 30 ed 3e
       0.54410154 0.001674308 0.33584297 0.46325988
000330 a4 aa 30 3e c2 4d c1 3e 64 d3 5b 3e 39 4a 20 3f
       0.17252594 0.37754637 0.21467358 0.62613255
000340 09 3a 34 3e 31 02 d6 3e ce f0 e8 be ee 27 b7 3d
       0.17600264 0.41798547 -0.4549622 0.08943163
000350 e0 2a 61 3e 1b e6 f6 3e d8 46 f0 3e 5b 7e d8 3e
       0.21989012 0.48222432 0.4692905 0.42283902
000360 38 33 42 3f c8 b6 69 3e ee ed a7 3e ba a6 a6 3e
       0.75859404 0.22823632 0.32798713 0.32549077
000370 95 1f c8 3e 48 5d 66 3e a9 87 72 3e d7 38 b5 bf
       0.39086595 0.22496521 0.23684563 -1.4157971
000380 e8 75 ca 3d f4 3e 46 be b0 9f 16 3f 1e f8 c4 bd
       0.0988577 -0.19359952 0.58837414 -0.09617637
000390 e6 b1 96 bf db aa dd bd 06 90 fe 3d 5f c8 6b 3e
       -1.177304 -0.10823604 0.12429814 0.23025654
0003a0 3c 01 a1 be d7 c8 e1 3e 3d a8 32 3e 2a 07 0d bf
       -0.31446254 0.4409854 0.1744699 -0.55089056
0003b0 f7 bb 70 3e c1 89 10 3e e4 21 84 be 83 56 37 3e
       0.23509203 0.14115049 -0.25807106 0.17904095
0003c0 9e a9 f7 3e c5 0d f8 3e 22 cf 8f bf 7a d0 86 3e
       0.48371595 0.48448005 -1.1235087 0.2633093
0003d0 c2 59 15 3f b9 99 0a bf a1 a9 c3 3e 51 4b 0a 3d
       0.58340085 -0.5414081 0.38215354 0.033763234
0003e0 ed 10 56 3e d2 7c c4 3e a5 ab 93 3e 00 98 1b bf
       0.20904894 0.3837648 0.28841892 -0.6077881
0003f0 d5 51 2f 3e 2a 4e 6c 3e b2 ba 45 bf 40 ee ef 3d
       0.1712106 0.23076692 -0.77238 0.117153645

fc2.bias f4 [64]
000000 f4 43 2d be ec 03 11 be 6b 09 a5 be 4c 18 62 3e
       -0.16920453 -0.14161652 -0.32233748 0.22079581
000010 a0 12 33 3e 5b 7e 8f bc d0 33 5e 3d 95 67 3a be
       0.17487574 -0.017516306 0.05424863 -0.18203576
000020 33 dd 57 3c ee 21 e4 bd bb b1 b7 3d e8 21 aa be
       0.013175297 -0.11139284 0.08969446 -0.33228993
000030 2b 73 da be a1 e8 02 3f c7 8d be be 0a 44 14 3f
       -0.4266599 0.51136214 -0.37217543 0.5791632
000040 2f 5c c4 bd 6b 64 9e 3e 40 62 fa bd ab cd e1 3d
       -0.09587895 0.30935988 -0.12225771 0.11025556
000050 98 42 ef 3d cc 0b 1e bd 66 09 81 bd 0d 42 1d be
       0.116826236 -0.03858547 -0.06300621 -0.15357228
000060 eb ef 11 be 9b 0c 13 be 79 94 1d 3e dc 25 02 3e
       -0.14251678 -0.14360277 0.15388669 0.12709755
000070 ed dc 31 be 22 24 94 bd eb fb 80 bc 28 78 db 3e
       -0.17369433 -0.07233454 -0.015745124 0.4286511
000080 68 59 b1 be 55 7b a9 3e 41 2d 08 3e 2c 5b f9 bd
       -0.34638524 0.33101907 0.13298513 -0.12175593
000090 4f 26 d9 be 9e b4 89 bd d1 1e ea 3e fc 7f d1 3d
       -0.4241204 -0.06723903 0.45726636 0.10229489
0000a0 14 30 07 be 17 ce ec 3e 9b bd 5b 3f f9 f4 94 3d
       -0.13201934 0.46250984 0.8583619 0.07273287
0000b0 a6 6d d5 bd 64 ab 87 3d 33 8d cc bd 68 52 79 bc
       -0.104213044 0.06624487 -0.09987869 -0.015217401
0000c0 f3 84 16 3e cf 4b 16 3d d2 60 1b 3f df 99 94 be
       0.14699154 0.03669339 0.6069461 -0.29023644
0000d0 92 e2 fa 3e 9d 41 b6 3a 89 0d 98 be c0 4b 21 be
       0.49000984 0.0013905052 -0.29697827 -0.15751553
0000e0 b5 e7 8d 3d e7 f5 a0 be cb ac c8 bd e6 e9 e1 3d
       0.0692896 -0.3143761 -0.09798583 0.11030941
0000f0 eb 87 ff be c1 7b c1 be 0d 31 42 3e ee 60 02 3e
       -0.49908385 -0.3778973 0.18964024 0.12732288

fc3.weight f4 [4, 64]
000000 6e a3 3f bf 83 0f e0 3c d1 ae 19 bf 35 2c b5 be
       -0.7485875 0.027351147 -0.60032374 -0.3538529
000010 f6 23 b8 be c4 05 9f be b5 1f 35 40 d4 88 25 bf
       -0.35964936 -0.31059086 2.8300602 -0.6466191
000020 76 8e a6 bd 30 e9 6f 3d 0c 17 d5 be 93 e2 e9 3d
       -0.08132641 0.058571994 -0.41619146 0.11420169
000030 c2 4e ff be af 6e d4 bf c4 ba bb 3a 14 0f be 3f
       -0.49864775 -1.6596278 0.0014322628 1.4848351
000040 e6 2b 69 be fd bb 3f bf 8f 0e e7 be 57 18 9f be
       -0.22770652 -0.7489622 -0.45128295 -0.31073257
000050 65 37 ab be 7a 4c 73 3d 13 4f b4 3d f1 a5 93 bc
       -0.334407 0.059399106 0.08804145 -0.018023463
000060 d6 96 90 be d2 bd ad 3d 64 02 03 3f a4 c2 fd be
       -0.2824008 0.08483471 0.5117552 -0.49562562
000070 dc ae 20 bf 84 65 d9 be 67 93 41 be 64 bd b7 3f
       -0.62766814 -0.42460263 -0.18903886 1.4354672
000080 62 e3 3e bf 62 af 2a bf ff 0c 85 be 4b bb bb bd
       -0.7456571 -0.6667386 -0.25986478 -0.09166583
000090 5d 5e 09 3e 86 97 50 be 4f 1e a5 bf fb 99 7f bf
       0.13414903 -0.20370302 -1.2899874 -0.9984433
0000a0 ea 8f 7e be c4 4a 5c bf 18 a3 ad 3f 2f e1 fd 3f
       -0.24859586 -0.86051583 1.3565397 1.9834346
0000b0 18 fb 0f bf 0f d0 8a bc 35 66 c8 3d 98 bb 25 bd
       -0.56242514 -0.016944913 0.097851194 -0.040462106
0000c0 3b 5f de be 91 84 eb 3e 26 9c 59 bf e9 bb 9f bd
       -0.4343203 0.45999578 -0.8500389 -0.07799513
0000d0 46 c1 98 be ee 9f 2b 3c 34 9e 5b bf 21 2b 63 3c
       -0.29834956 0.010475142 -0.85788274 0.013865263
0000e0 76 39 26 bf 80 a0 ba be 9c 0f 1b bc dd f0 c2 be
       -0.6493143 -0.36450577 -0.009464171 -0.3807439
0000f0 03 54 4a bf ff 79 28 bf 91 52 fa 3f b3 8f ce be
       -0.7903444 -0.6581115 1.9556447 -0.4034401
000100 b2 82 b5 bc 24 f5 9f 3c 6f 78 a7 be 46 46 13 bf
       -0.022157047 0.019526072 -0.3270907 -0.57529104
000110 e9 0c 29 bf 31 ec 9e be b4 68 21 40 0d 02 09 bf
       -0.66035324 -0.31039575 2.5220156 -0.53518754
000120 2a fc e3 3d 3e d9 a3 bd 99 96 28 bf d2 c9 06 bf
       0.11132081 -0.0800042 -0.65854794 -0.52651703
000130 05 8c 6e be c6 4d f0 bf 0c bb 60 be c9 64 b1 3f
       -0.232956 -1.8773735 -0.21946353 1.3858882
000140 d6 b4 a7 be 40 36 c8 be d3 1d be be f8 37 0e bf
       -0.32755154 -0.3910389 -0.3713213 -0.5555415
000150 c0 9d 02 bf 2c 21 e4 3d 3e f9 54 3d c3 e9 09 bd
       -0.5102196 0.111391395 0.05199551 -0.0336702
000160 97 7e bd be 68 7c 8f 3d c6 64 1d bd cd b1 9b be
       -0.37010643 0.070061505 -0.038426183 -0.3040909
000170 57 87 5c bf ef 41 b9 be ed 51 c7 be 16 50 99 3f
       -0.8614401 -0.36183116 -0.38929692 1.1977565
000180 88 d7 11 bf 08 74 91 bf 97 12 08 bf cc 87 ff 3d
       -0.569695 -1.1363535 -0.53153366 0.12477073
000190 59 f8 23 bf ed 79 d1 be f6 0e cb be 05 2d e4 be
       -0.64050823 -0.40913334 -0.39659852 -0.44565597
0001a0 7a 6c ec be c8 9d 4b bf 95 97 d3 3f 64 6e aa 3f
       -0.4617651 -0.7953763 1.6530634 1.3314939
0001b0 b4 02 76 bf 60 1a 2f 3c d0 a0 c4 3d a8 40 35 bd
       -0.96097875 0.010687441 0.09600985 -0.044251114
0001c0 55 35 f2 be 85 82 05 3f c4 fa ef be b2 67 b4 bd
       -0.47306314 0.5215228 -0.46871006 -0.08808841
0001d0 f1 4b 4f bf 2c 7d af be 89 33 01 bf e3 f4 00 bd
       -0.8097525 -0.34275186 -0.5046926 -0.031483542
0001e0 4b 54 1f bf 6b 3a be bc 2d bd 33 3b a0 92 2b bf
       -0.62237996 -0.023221215 0.002742599 -0.67020607
0001f0 4d f8 00 bf f9 78 7a be 6f 08 fe 3f ba 82 d1 be
       -0.50378877 -0.2446021 1.9846324 -0.4092005
000200 20 fb 10 bf 2e 6a ae bd 19 1c f7 be 6b e2 90 be
       -0.56633186 -0.08516346 -0.48263624 -0.28297743
000210 35 b6 08 3d a0 08 5c bd 86 2e 10 40 87 e3 4c be
       0.03337689 -0.053719163 2.2528396 -0.2000867
000220 4c 08 af 3d 45 19 5d 3d 81 86 b5 be 26 8f 21 bf
       0.085465044 0.053979177 -0.3545418 -0.6310905
000230 ae 40 ba be 5d 46 69 bf 68 4a 74 bf 88 3b cb 3f
       -0.36377472 -0.9112299 -0.95426035 1.5877542
000240 6e 4f 31 be b9 63 8b bf 5f 1d 39 bf 06 a9 fb be
       -0.17315456 -1.0889808 -0.7231044 -0.49152392
000250 4d 11 5a bc c1 8a b9 3d 6b 6f 40 bd 82 b1 a1 bc
       -0.013309789 0.09059668 -0.046981256 -0.019737963
000260 bf 0c 3f be 2a 8c de 3d 4b b8 97 bf ca 62 5f bf
       -0.18657206 0.10866578 -1.1853117 -0.87260115
000270 c7 18 8a be 7d 2d bc bd b5 28 6b bf 2c 36 f6 3f
       -0.2697203 -0.09188364 -0.9185899 1.9235282
000280 19 2e ed be c7 a7 3c bf 30 5f c3 be 90 32 4f bd
       -0.46324232 -0.7369351 -0.3815856 -0.05058533
000290 52 12 ad be 50 ed 3e be f5 3c 27 bf 64 9b 0f bf
       -0.3380304 -0.18645215 -0.6532739 -0.5609648
0002a0 f0 df 90 be a6 22 9f bf 7b e6 a3 3f 84 f3 0a 40
       -0.2829585 -1.2432449 1.2804712 2.171113
0002b0 80 63 20 bf c0 fa 4d bb 7a b0 cd bc b7 4c 03 be
       -0.62651825 -0.0031429976 -0.025108565 -0.12822233
0002c0 36 2f be be 54 9d d7 bf a5 d1 8d bf e0 eb 7d bf
       -0.37145394 -1.6844888 -1.1079603 -0.9918804
0002d0 af e1 93 bf a5 94 78 bf 5a 48 b0 be 53 d6 81 3c
       -1.1553248 -0.97101814 -0.344302 0.015849268
0002e0 01 61 13 be f9 3f 0a bf e1 94 5a 3d 45 4f 79 be
       -0.14392473 -0.54003865 0.05336464 -0.24346645
0002f0 a4 bc dd be 69 79 c9 be e0 c2 f3 3f 73 e0 de be
       -0.43307984 -0.3935044 1.9043846 -0.43530616
000300 03 0c e0 be db ef 9f 3d cd 9a e7 be e6 29 2d bf
       -0.43759164 0.07809421 -0.4523529 -0.67642057
000310 a8 74 14 bf 43 0e 9a be 4f 2e 36 40 0f a2 d8 be
       -0.57990503 -0.30089006 2.8465765 -0.4231114
000320 50 47 93 3c 49 00 e6 bc 47 fc d8 be de 71 3a be
       0.01797834 -0.028076308 -0.42379972 -0.182075
000330 eb e8 26 bf 44 eb 00 c0 26 b2 1a 3e a4 fa f4 3f
       -0.65199155 -2.0143595 0.1510702 1.913899
000340 8d 20 d8 be 5f 1d d6 be 00 d4 e8 be bf ca 23 bf
       -0.42212334 -0.41819283 -0.45474243 -0.6398124
000350 99 41 0d bf 70 e0 a6 bd d6 e7 e5 3c cb ee df 3c
       -0.5517822 -0.08148277 0.02806465 0.027335545
000360 9a 99 96 be 88 28 a5 3d 40 78 20 3f ac 36 2b bf
       -0.29414064 0.08064371 0.62683487 -0.668803
000370 7a 67 1a bf f4 ef 9b be 8b 24 4c bf fd 2d 32 3f
       -0.6031414 -0.30456507 -0.7974326 0.6960142
000380 c0 14 10 bf d0 3e 53 bf 05 4d 4b bf a4 61 9b bd
       -0.5628166 -0.8251772 -0.794144 -0.07586983
000390 c3 6c 74 be a0 f3 a3 be 8c 96 90 bf 09 35 1d bf
       -0.23869614 -0.3202181 -1.1295943 -0.6140905
0003a0 8b 67 a3 be 2e 37 11 bf b4 7c c8 3f 58 63 f0 3f
       -0.31914935 -0.5672482 1.5663056 1.8780317
0003b0 cd 72 eb 3e b3 92 d3 bd 8f eb 17 3d 71 16 a0 bc
       0.45986024 -0.10330715 0.03708988 -0.01954195
0003c0 e7 b8 15 bf ff 64 31 be cf ae 6e bf c0 ed d8 bd
       -0.58485264 -0.17323683 -0.93235487 -0.10592222
0003d0 bd c5 f1 3e 25 91 80 3e ff f7 12 bf 62 c3 f5 bc
       0.47221175 0.25110736 -0.5740966 -0.030000392
0003e0 e9 c5 84 be db ea e3 bd 7a ac 0d 3c f1 0e 1d bf
       -0.25932243 -0.111287795 0.008647079 -0.61350924
0003f0 8f b7 1b bf 87 68 56 bf ac 9f d4 3f ce 68 df be
       -0.60826963 -0.83753246 1.6611228 -0.43634647

fc3.bias f4 [4]
000000 e4 3f 9e 3e 91 58 34 bd 3f 91 3d 3f ce 48 09 be
       0.3090812 -0.044029776 0.7404975 -0.13406679
